…
7GaGmmF-58hoiLNhm5xIX8=s64","userId":"01899897258593128956"}},"outputId":"bc269462-ddb9-40ed-bc10-2f70d45a6ef6"},"source":["bm = getBaseModel()\n","print(bm.summary())"],"execution_count":15,"outputs":[{"output_type":"stream","text":["Model: \"model_1\"\n","__________________________________________________________________________________________________\n","Layer (type)                    Output Shape         Param #     Connected to                     \n","==================================================================================================\n","input_1 (InputLayer)            [(None, 197, 197, 3) 0                                            \n","__________________________________________________________________________________________________\n","conv1/7x7_s2 (Conv2D)           (None, 99, 99, 64)   9408        input_1[0][0]                    \n","__________________________________________________________________________________________________\n","conv1/7x7_s2/bn (BatchNormaliza (None, 99, 99, 64)   256         conv1/7x7_s2[0][0]               \n","__________________________________________________________________________________________________\n","activation_1 (Activation)       (None, 99, 99, 64)   0           conv1/7x7_s2/bn[0][0]            \n","__________________________________________________________________________________________________\n","max_pooling2d_1 (MaxPooling2D)  (None, 49, 49, 64)   0           activation_1[0][0]               \n","__________________________________________________________________________________________________\n","conv2_1_1x1_reduce (Conv2D)     (None, 49, 49, 64)   4096        max_pooling2d_1[0][0]            \n","__________________________________________________________________________________________________\n","conv2_1_1x1_reduce/bn (BatchNor (None, 49, 49, 64)   256         conv2_1_1x1_reduce[0][0]         \n","__________________________________________________________________________________________________\n","activation_2 (Activation)       (None, 49, 49, 64)   0           conv2_1_1x1_reduce/bn[0][0]      \n","__________________________________________________________________________________________________\n","conv2_1_3x3 (Conv2D)            (None, 49, 49, 64)   36864       activation_2[0][0]               \n","__________________________________________________________________________________________________\n","conv2_1_3x3/bn (BatchNormalizat (None, 49, 49, 64)   256         conv2_1_3x3[0][0]                \n","__________________________________________________________________________________________________\n","activation_3 (Activation)       (None, 49, 49, 64)   0           conv2_1_3x3/bn[0][0]             \n","__________________________________________________________________________________________________\n","conv2_1_1x1_increase (Conv2D)   (None, 49, 49, 256)  16384       activation_3[0][0]               \n","__________________________________________________________________________________________________\n","conv2_1_1x1_proj (Conv2D)       (None, 49, 49, 256)  16384       max_pooling2d_1[0][0]            \n","__________________________________________________________________________________________________\n","conv2_1_1x1_increase/bn (BatchN (None, 49, 49, 256)  1024        conv2_1_1x1_increase[0][0]       \n","__________________________________________________________________________________________________\n","conv2_1_1x1_proj/bn (BatchNorma (None, 49, 49, 256)  1024        conv2_1_1x1_proj[0][0]           \n","__________________________________________________________________________________________________\n","add_1 (Add)                     (None, 49, 49, 256)  0           conv2_1_1x1_increase/bn[0][0]    \n","                                                                 conv2_1_1x1_proj/bn[0][0]        \n","__________________________________________________________________________________________________\n","activation_4 (Activation)       (None, 49, 49, 256)  0           add_1[0][0]                      \n","__________________________________________________________________________________________________\n","conv2_2_1x1_reduce (Conv2D)     (None, 49, 49, 64)   16384       activation_4[0][0]               \n","__________________________________________________________________________________________________\n","conv2_2_1x1_reduce/bn (BatchNor (None, 49, 49, 64)   256         conv2_2_1x1_reduce[0][0]         \n","__________________________________________________________________________________________________\n","activation_5 (Activation)       (None, 49, 49, 64)   0           conv2_2_1x1_reduce/bn[0][0]      \n","__________________________________________________________________________________________________\n","conv2_2_3x3 (Conv2D)            (None, 49, 49, 64)   36864       activation_5[0][0]               \n","__________________________________________________________________________________________________\n","conv2_2_3x3/bn (BatchNormalizat (None, 49, 49, 64)   256         conv2_2_3x3[0][0]                \n","__________________________________________________________________________________________________\n","activation_6 (Activation)       (None, 49, 49, 64)   0           conv2_2_3x3/bn[0][0]             \n","__________________________________________________________________________________________________\n","conv2_2_1x1_increase (Conv2D)   (None, 49, 49, 256)  16384       activation_6[0][0]               \n","__________________________________________________________________________________________________\n","conv2_2_1x1_increase/bn (BatchN (None, 49, 49, 256)  1024        conv2_2_1x1_increase[0][0]       \n","__________________________________________________________________________________________________\n","add_2 (Add)                     (None, 49, 49, 256)  0           conv2_2_1x1_increase/bn[0][0]    \n","                                                                 activation_4[0][0]               \n","__________________________________________________________________________________________________\n","activation_7 (Activation)       (None, 49, 49, 256)  0           add_2[0][0]                      \n","__________________________________________________________________________________________________\n","conv2_3_1x1_reduce (Conv2D)     (None, 49, 49, 64)   16384       activation_7[0][0]               \n","__________________________________________________________________________________________________\n","conv2_3_1x1_reduce/bn (BatchNor (None, 49, 49, 64)   256         conv2_3_1x1_reduce[0][0]         \n","__________________________________________________________________________________________________\n","activation_8 (Activation)       (None, 49, 49, 64)   0           conv2_3_1x1_reduce/bn[0][0]      \n","__________________________________________________________________________________________________\n","conv2_3_3x3 (Conv2D)            (None, 49, 49, 64)   36864       activation_8[0][0]               \n","__________________________________________________________________________________________________\n","conv2_3_3x3/bn (BatchNormalizat (None, 49, 49, 64)   256         conv2_3_3x3[0][0]                \n","__________________________________________________________________________________________________\n","activation_9 (Activation)       (None, 49, 49, 64)   0           conv2_3_3x3/bn[0][0]             \n","__________________________________________________________________________________________________\n","conv2_3_1x1_increase (Conv2D)   (None, 49, 49, 256)  16384       activation_9[0][0]               \n","__________________________________________________________________________________________________\n","conv2_3_1x1_increase/bn (BatchN (None, 49, 49, 256)  1024        conv2_3_1x1_increase[0][0]       \n","__________________________________________________________________________________________________\n","add_3 (Add)                     (None, 49, 49, 256)  0           conv2_3_1x1_increase/bn[0][0]    \n","                                                                 activation_7[0][0]               \n","__________________________________________________________________________________________________\n","activation_10 (Activation)      (None, 49, 49, 256)  0           add_3[0][0]                      \n","__________________________________________________________________________________________________\n","conv3_1_1x1_reduce (Conv2D)     (None, 25, 25, 128)  32768       activation_10[0][0]              \n","__________________________________________________________________________________________________\n","conv3_1_1x1_reduce/bn (BatchNor (None, 25, 25, 128)  512         conv3_1_1x1_reduce[0][0]         \n","__________________________________________________________________________________________________\n","activation_11 (Activation)      (None, 25, 25, 128)  0           conv3_1_1x1_reduce/bn[0][0]      \n","__________________________________________________________________________________________________\n","conv3_1_3x3 (Conv2D)            (None, 25, 25, 128)  147456      activation_11[0][0]              \n","__________________________________________________________________________________________________\n","conv3_1_3x3/bn (BatchNormalizat (None, 25, 25, 128)  512         conv3_1_3x3[0][0]                \n","__________________________________________________________________________________________________\n","activation_12 (Activation)      (None, 25, 25, 128)  0           conv3_1_3x3/bn[0][0]             \n","__________________________________________________________________________________________________\n","conv3_1_1x1_increase (Conv2D)   (None, 25, 25, 512)  65536       activation_12[0][0]              \n","__________________________________________________________________________________________________\n","conv3_1_1x1_proj (Conv2D)       (None, 25, 25, 512)  131072      activation_10[0][0]              \n","__________________________________________________________________________________________________\n","conv3_1_1x1_increase/bn (BatchN (None, 25, 25, 512)  2048        conv3_1_1x1_increase[0][0]       \n","__________________________________________________________________________________________________\n","conv3_1_1x1_proj/bn (BatchNorma (None, 25, 25, 512)  2048        conv3_1_1x1_proj[0][0]           \n","__________________________________________________________________________________________________\n","add_4 (Add)                     (None, 25, 25, 512)  0           conv3_1_1x1_increase/bn[0][0]    \n","                                                                 conv3_1_1x1_proj/bn[0][0]        \n","__________________________________________________________________________________________________\n","activation_13 (Activation)      (None, 25, 25, 512)  0           add_4[0][0]                      \n","__________________________________________________________________________________________________\n","conv3_2_1x1_reduce (Conv2D)     (None, 25, 25, 128)  65536       activation_13[0][0]              \n","__________________________________________________________________________________________________\n","conv3_2_1x1_reduce/bn (BatchNor (None, 25, 25, 128)  512         conv3_2_1x1_reduce[0][0]         \n","__________________________________________________________________________________________________\n","activation_14 (Activation)      (None, 25, 25, 128)  0           conv3_2_1x1_reduce/bn[0][0]      \n","__________________________________________________________________________________________________\n","conv3_2_3x3 (Conv2D)            (None, 25, 25, 128)  147456      activation_14[0][0]              \n","__________________________________________________________________________________________________\n","conv3_2_3x3/bn (BatchNormalizat (None, 25, 25, 128)  512         conv3_2_3x3[0][0]                \n","__________________________________________________________________________________________________\n","activation_15 (Activation)      (None, 25, 25, 128)  0           conv3_2_3x3/bn[0][0]             \n","__________________________________________________________________________________________________\n","conv3_2_1x1_increase (Conv2D)   (None, 25, 25, 512)  65536       activation_15[0][0]              \n","__________________________________________________________________________________________________\n","conv3_2_1x1_increase/bn (BatchN (None, 25, 25, 512)  2048        conv3_2_1x1_increase[0][0]       \n","__________________________________________________________________________________________________\n","add_5 (Add)                     (None, 25, 25, 512)  0           conv3_2_1x1_increase/bn[0][0]    \n","                                                                 activation_13[0][0]              \n","__________________________________________________________________________________________________\n","activation_16 (Activation)      (None, 25, 25, 512)  0           add_5[0][0]                      \n","__________________________________________________________________________________________________\n","conv3_3_1x1_reduce (Conv2D)     (None, 25, 25, 128)  65536       activation_16[0][0]              \n","__________________________________________________________________________________________________\n","conv3_3_1x1_reduce/bn (BatchNor (None, 25, 25, 128)  512         conv3_3_1x1_reduce[0][0]         \n","__________________________________________________________________________________________________\n","activation_17 (Activation)      (None, 25, 25, 128)  0           conv3_3_1x1_reduce/bn[0][0]      \n","__________________________________________________________________________________________________\n","conv3_3_3x3 (Conv2D)            (None, 25, 25, 128)  147456      activation_17[0][0]              \n","__________________________________________________________________________________________________\n","conv3_3_3x3/bn (BatchNormalizat (None, 25, 25, 128)  512         conv3_3_3x3[0][0]                \n","__________________________________________________________________________________________________\n","activation_18 (Activation)      (None, 25, 25, 128)  0           conv3_3_3x3/bn[0][0]             \n","__________________________________________________________________________________________________\n","conv3_3_1x1_increase (Conv2D)   (None, 25, 25, 512)  65536       activation_18[0][0]              \n","__________________________________________________________________________________________________\n","conv3_3_1x1_increase/bn (BatchN (None, 25, 25, 512)  2048        conv3_3_1x1_increase[0][0]       \n","__________________________________________________________________________________________________\n","add_6 (Add)                     (None, 25, 25, 512)  0           conv3_3_1x1_increase/bn[0][0]    \n","                                                                 activation_16[0][0]              \n","__________________________________________________________________________________________________\n","activation_19 (Activation)      (None, 25, 25, 512)  0           add_6[0][0]                      \n","__________________________________________________________________________________________________\n","conv3_4_1x1_reduce (Conv2D)     (None, 25, 25, 128)  65536       activation_19[0][0]              \n","__________________________________________________________________________________________________\n","conv3_4_1x1_reduce/bn (BatchNor (None, 25, 25, 128)  512         conv3_4_1x1_reduce[0][0]         \n","__________________________________________________________________________________________________\n","activation_20 (Activation)      (None, 25, 25, 128)  0           conv3_4_1x1_reduce/bn[0][0]      \n","__________________________________________________________________________________________________\n","conv3_4_3x3 (Conv2D)            (None, 25, 25, 128)  147456      activation_20[0][0]              \n","__________________________________________________________________________________________________\n","conv3_4_3x3/bn (BatchNormalizat (None, 25, 25, 128)  512         conv3_4_3x3[0][0]                \n","__________________________________________________________________________________________________\n","activation_21 (Activation)      (None, 25, 25, 128)  0           conv3_4_3x3/bn[0][0]             \n","__________________________________________________________________________________________________\n","conv3_4_1x1_increase (Conv2D)   (None, 25, 25, 512)  65536       activation_21[0][0]              \n","__________________________________________________________________________________________________\n","conv3_4_1x1_increase/bn (BatchN (None, 25, 25, 512)  2048        conv3_4_1x1_increase[0][0]       \n","__________________________________________________________________________________________________\n","add_7 (Add)                     (None, 25, 25, 512)  0           conv3_4_1x1_increase/bn[0][0]    \n","                                                                 activation_19[0][0]              \n","__________________________________________________________________________________________________\n","activation_22 (Activation)      (None, 25, 25, 512)  0           add_7[0][0]                      \n","__________________________________________________________________________________________________\n","conv4_1_1x1_reduce (Conv2D)     (None, 13, 13, 256)  131072      activation_22[0][0]              \n","__________________________________________________________________________________________________\n","conv4_1_1x1_reduce/bn (BatchNor (None, 13, 13, 256)  1024        conv4_1_1x1_reduce[0][0]         \n","__________________________________________________________________________________________________\n","activation_23 (Activation)      (None, 13, 13, 256)  0           conv4_1_1x1_reduce/bn[0][0]      \n","__________________________________________________________________________________________________\n","conv4_1_3x3 (Conv2D)            (None, 13, 13, 256)  589824      activation_23[0][0]              \n","__________________________________________________________________________________________________\n","conv4_1_3x3/bn (BatchNormalizat (None, 13, 13, 256)  1024        conv4_1_3x3[0][0]                \n","__________________________________________________________________________________________________\n","activation_24 (Activation)      (None, 13, 13, 256)  0           conv4_1_3x3/bn[0][0]             \n","__________________________________________________________________________________________________\n","conv4_1_1x1_increase (Conv2D)   (None, 13, 13, 1024) 262144      activation_24[0][0]              \n","__________________________________________________________________________________________________\n","conv4_1_1x1_proj (Conv2D)       (None, 13, 13, 1024) 524288      activation_22[0][0]              \n","__________________________________________________________________________________________________\n","conv4_1_1x1_increase/bn (BatchN (None, 13, 13, 1024) 4096        conv4_1_1x1_increase[0][0]       \n","__________________________________________________________________________________________________\n","conv4_1_1x1_proj/bn (BatchNorma (None, 13, 13, 1024) 4096        conv4_1_1x1_proj[0][0]           \n","__________________________________________________________________________________________________\n","add_8 (Add)                     (None, 13, 13, 1024) 0           conv4_1_1x1_increase/bn[0][0]    \n","                                                                 conv4_1_1x1_proj/bn[0][0]        \n","__________________________________________________________________________________________________\n","activation_25 (Activation)      (None, 13, 13, 1024) 0           add_8[0][0]                      \n","__________________________________________________________________________________________________\n","conv4_2_1x1_reduce (Conv2D)     (None, 13, 13, 256)  262144      activation_25[0][0]              \n","__________________________________________________________________________________________________\n","conv4_2_1x1_reduce/bn (BatchNor (None, 13, 13, 256)  1024        conv4_2_1x1_reduce[0][0]         \n","__________________________________________________________________________________________________\n","activation_26 (Activation)      (None, 13, 13, 256)  0           conv4_2_1x1_reduce/bn[0][0]      \n","__________________________________________________________________________________________________\n","conv4_2_3x3 (Conv2D)            (None, 13, 13, 256)  589824      activation_26[0][0]              \n","__________________________________________________________________________________________________\n","conv4_2_3x3/bn (BatchNormalizat (None, 13, 13, 256)  1024        conv4_2_3x3[0][0]                \n","__________________________________________________________________________________________________\n","activation_27 (Activation)      (None, 13, 13, 256)  0           conv4_2_3x3/bn[0][0]             \n","__________________________________________________________________________________________________\n","conv4_2_1x1_increase (Conv2D)   (None, 13, 13, 1024) 262144      activation_27[0][0]              \n","__________________________________________________________________________________________________\n","conv4_2_1x1_increase/bn (BatchN (None, 13, 13, 1024) 4096        conv4_2_1x1_increase[0][0]       \n","__________________________________________________________________________________________________\n","add_9 (Add)                     (None, 13, 13, 1024) 0           conv4_2_1x1_increase/bn[0][0]    \n","                                                                 activation_25[0][0]              \n","__________________________________________________________________________________________________\n","activation_28 (Activation)      (None, 13, 13, 1024) 0           add_9[0][0]                      \n","__________________________________________________________________________________________________\n","conv4_3_1x1_reduce (Conv2D)     (None, 13, 13, 256)  262144      activation_28[0][0]              \n","__________________________________________________________________________________________________\n","conv4_3_1x1_reduce/bn (BatchNor (None, 13, 13, 256)  1024        conv4_3_1x1_reduce[0][0]         \n","__________________________________________________________________________________________________\n","activation_29 (Activation)      (None, 13, 13, 256)  0           conv4_3_1x1_reduce/bn[0][0]      \n","__________________________________________________________________________________________________\n","conv4_3_3x3 (Conv2D)            (None, 13, 13, 256)  589824      activation_29[0][0]              \n","__________________________________________________________________________________________________\n","conv4_3_3x3/bn (BatchNormalizat (None, 13, 13, 256)  1024        conv4_3_3x3[0][0]                \n","__________________________________________________________________________________________________\n","activation_30 (Activation)      (None, 13, 13, 256)  0           conv4_3_3x3/bn[0][0]             \n","__________________________________________________________________________________________________\n","conv4_3_1x1_increase (Conv2D)   (None, 13, 13, 1024) 262144      activation_30[0][0]              \n","__________________________________________________________________________________________________\n","conv4_3_1x1_increase/bn (BatchN (None, 13, 13, 1024) 4096        conv4_3_1x1_increase[0][0]       \n","__________________________________________________________________________________________________\n","add_10 (Add)                    (None, 13, 13, 1024) 0           conv4_3_1x1_increase/bn[0][0]    \n","                                                                 activation_28[0][0]              \n","__________________________________________________________________________________________________\n","activation_31 (Activation)      (None, 13, 13, 1024) 0           add_10[0][0]                     \n","__________________________________________________________________________________________________\n","conv4_4_1x1_reduce (Conv2D)     (None, 13, 13, 256)  262144      activation_31[0][0]              \n","__________________________________________________________________________________________________\n","conv4_4_1x1_reduce/bn (BatchNor (None, 13, 13, 256)  1024        conv4_4_1x1_reduce[0][0]         \n","__________________________________________________________________________________________________\n","activation_32 (Activation)      (None, 13, 13, 256)  0           conv4_4_1x1_reduce/bn[0][0]      \n","__________________________________________________________________________________________________\n","conv4_4_3x3 (Conv2D)            (None, 13, 13, 256)  589824      activation_32[0][0]              \n","__________________________________________________________________________________________________\n","conv4_4_3x3/bn (BatchNormalizat (None, 13, 13, 256)  1024        conv4_4_3x3[0][0]                \n","__________________________________________________________________________________________________\n","activation_33 (Activation)      (None, 13, 13, 256)  0           conv4_4_3x3/bn[0][0]             \n","__________________________________________________________________________________________________\n","conv4_4_1x1_increase (Conv2D)   (None, 13, 13, 1024) 262144      activation_33[0][0]              \n","__________________________________________________________________________________________________\n","conv4_4_1x1_increase/bn (BatchN (None, 13, 13, 1024) 4096        conv4_4_1x1_increase[0][0]       \n","__________________________________________________________________________________________________\n","add_11 (Add)                    (None, 13, 13, 1024) 0           conv4_4_1x1_increase/bn[0][0]    \n","                                                                 activation_31[0][0]              \n","__________________________________________________________________________________________________\n","activation_34 (Activation)      (None, 13, 13, 1024) 0           add_11[0][0]                     \n","__________________________________________________________________________________________________\n","conv4_5_1x1_reduce (Conv2D)     (None, 13, 13, 256)  262144      activation_34[0][0]              \n","__________________________________________________________________________________________________\n","conv4_5_1x1_reduce/bn (BatchNor (None, 13, 13, 256)  1024        conv4_5_1x1_reduce[0][0]         \n","__________________________________________________________________________________________________\n","activation_35 (Activation)      (None, 13, 13, 256)  0           conv4_5_1x1_reduce/bn[0][0]      \n","__________________________________________________________________________________________________\n","conv4_5_3x3 (Conv2D)            (None, 13, 13, 256)  589824      activation_35[0][0]              \n","__________________________________________________________________________________________________\n","conv4_5_3x3/bn (BatchNormalizat (None, 13, 13, 256)  1024        conv4_5_3x3[0][0]                \n","__________________________________________________________________________________________________\n","activation_36 (Activation)      (None, 13, 13, 256)  0           conv4_5_3x3/bn[0][0]             \n","__________________________________________________________________________________________________\n","conv4_5_1x1_increase (Conv2D)   (None, 13, 13, 1024) 262144      activation_36[0][0]              \n","__________________________________________________________________________________________________\n","conv4_5_1x1_increase/bn (BatchN (None, 13, 13, 1024) 4096        conv4_5_1x1_increase[0][0]       \n","__________________________________________________________________________________________________\n","add_12 (Add)                    (None, 13, 13, 1024) 0           conv4_5_1x1_increase/bn[0][0]    \n","                                                                 activation_34[0][0]              \n","__________________________________________________________________________________________________\n","activation_37 (Activation)      (None, 13, 13, 1024) 0           add_12[0][0]                     \n","__________________________________________________________________________________________________\n","conv4_6_1x1_reduce (Conv2D)     (None, 13, 13, 256)  262144      activation_37[0][0]              \n","__________________________________________________________________________________________________\n","conv4_6_1x1_reduce/bn (BatchNor (None, 13, 13, 256)  1024        conv4_6_1x1_reduce[0][0]         \n","__________________________________________________________________________________________________\n","activation_38 (Activation)      (None, 13, 13, 256)  0           conv4_6_1x1_reduce/bn[0][0]      \n","__________________________________________________________________________________________________\n","conv4_6_3x3 (Conv2D)            (None, 13, 13, 256)  589824      activation_38[0][0]              \n","__________________________________________________________________________________________________\n","conv4_6_3x3/bn (BatchNormalizat (None, 13, 13, 256)  1024        conv4_6_3x3[0][0]                \n","__________________________________________________________________________________________________\n","activation_39 (Activation)      (None, 13, 13, 256)  0           conv4_6_3x3/bn[0][0]             \n","__________________________________________________________________________________________________\n","conv4_6_1x1_increase (Conv2D)   (None, 13, 13, 1024) 262144      activation_39[0][0]              \n","__________________________________________________________________________________________________\n","conv4_6_1x1_increase/bn (BatchN (None, 13, 13, 1024) 4096        conv4_6_1x1_increase[0][0]       \n","__________________________________________________________________________________________________\n","add_13 (Add)                    (None, 13, 13, 1024) 0           conv4_6_1x1_increase/bn[0][0]    \n","                                                                 activation_37[0][0]              \n","__________________________________________________________________________________________________\n","activation_40 (Activation)      (None, 13, 13, 1024) 0           add_13[0][0]                     \n","__________________________________________________________________________________________________\n","conv5_1_1x1_reduce (Conv2D)     (None, 7, 7, 512)    524288      activation_40[0][0]              \n","__________________________________________________________________________________________________\n","conv5_1_1x1_reduce/bn (BatchNor (None, 7, 7, 512)    2048        conv5_1_1x1_reduce[0][0]         \n","__________________________________________________________________________________________________\n","activation_41 (Activation)      (None, 7, 7, 512)    0           conv5_1_1x1_reduce/bn[0][0]      \n","__________________________________________________________________________________________________\n","conv5_1_3x3 (Conv2D)            (None, 7, 7, 512)    2359296     activation_41[0][0]              \n","__________________________________________________________________________________________________\n","conv5_1_3x3/bn (BatchNormalizat (None, 7, 7, 512)    2048        conv5_1_3x3[0][0]                \n","__________________________________________________________________________________________________\n","activation_42 (Activation)      (None, 7, 7, 512)    0           conv5_1_3x3/bn[0][0]             \n","__________________________________________________________________________________________________\n","conv5_1_1x1_increase (Conv2D)   (None, 7, 7, 2048)   1048576     activation_42[0][0]              \n","__________________________________________________________________________________________________\n","conv5_1_1x1_proj (Conv2D)       (None, 7, 7, 2048)   2097152     activation_40[0][0]              \n","__________________________________________________________________________________________________\n","conv5_1_1x1_increase/bn (BatchN (None, 7, 7, 2048)   8192        conv5_1_1x1_increase[0][0]       \n","__________________________________________________________________________________________________\n","conv5_1_1x1_proj/bn (BatchNorma (None, 7, 7, 2048)   8192        conv5_1_1x1_proj[0][0]           \n","__________________________________________________________________________________________________\n","add_14 (Add)                    (None, 7, 7, 2048)   0           conv5_1_1x1_increase/bn[0][0]    \n","                                                                 conv5_1_1x1_proj/bn[0][0]        \n","__________________________________________________________________________________________________\n","activation_43 (Activation)      (None, 7, 7, 2048)   0           add_14[0][0]                     \n","__________________________________________________________________________________________________\n","conv5_2_1x1_reduce (Conv2D)     (None, 7, 7, 512)    1048576     activation_43[0][0]              \n","__________________________________________________________________________________________________\n","conv5_2_1x1_reduce/bn (BatchNor (None, 7, 7, 512)    2048        conv5_2_1x1_reduce[0][0]         \n","__________________________________________________________________________________________________\n","activation_44 (Activation)      (None, 7, 7, 512)    0           conv5_2_1x1_reduce/bn[0][0]      \n","__________________________________________________________________________________________________\n","conv5_2_3x3 (Conv2D)            (None, 7, 7, 512)    2359296     activation_44[0][0]              \n","__________________________________________________________________________________________________\n","conv5_2_3x3/bn (BatchNormalizat (None, 7, 7, 512)    2048        conv5_2_3x3[0][0]                \n","__________________________________________________________________________________________________\n","activation_45 (Activation)      (None, 7, 7, 512)    0           conv5_2_3x3/bn[0][0]             \n","__________________________________________________________________________________________________\n","conv5_2_1x1_increase (Conv2D)   (None, 7, 7, 2048)   1048576     activation_45[0][0]              \n","__________________________________________________________________________________________________\n","conv5_2_1x1_increase/bn (BatchN (None, 7, 7, 2048)   8192        conv5_2_1x1_increase[0][0]       \n","__________________________________________________________________________________________________\n","add_15 (Add)                    (None, 7, 7, 2048)   0           conv5_2_1x1_increase/bn[0][0]    \n","                                                                 activation_43[0][0]              \n","__________________________________________________________________________________________________\n","activation_46 (Activation)      (None, 7, 7, 2048)   0           add_15[0][0]                     \n","__________________________________________________________________________________________________\n","conv5_3_1x1_reduce (Conv2D)     (None, 7, 7, 512)    1048576     activation_46[0][0]              \n","__________________________________________________________________________________________________\n","conv5_3_1x1_reduce/bn (BatchNor (None, 7, 7, 512)    2048        conv5_3_1x1_reduce[0][0]         \n","__________________________________________________________________________________________________\n","activation_47 (Activation)      (None, 7, 7, 512)    0           conv5_3_1x1_reduce/bn[0][0]      \n","__________________________________________________________________________________________________\n","conv5_3_3x3 (Conv2D)            (None, 7, 7, 512)    2359296     activation_47[0][0]              \n","__________________________________________________________________________________________________\n","conv5_3_3x3/bn (BatchNormalizat (None, 7, 7, 512)    2048        conv5_3_3x3[0][0]                \n","__________________________________________________________________________________________________\n","activation_48 (Activation)      (None, 7, 7, 512)    0           conv5_3_3x3/bn[0][0]             \n","__________________________________________________________________________________________________\n","conv5_3_1x1_increase (Conv2D)   (None, 7, 7, 2048)   1048576     activation_48[0][0]              \n","__________________________________________________________________________________________________\n","conv5_3_1x1_increase/bn (BatchN (None, 7, 7, 2048)   8192        conv5_3_1x1_increase[0][0]       \n","__________________________________________________________________________________________________\n","add_16 (Add)                    (None, 7, 7, 2048)   0           conv5_3_1x1_increase/bn[0][0]    \n","                                                                 activation_46[0][0]              \n","__________________________________________________________________________________________________\n","activation_49 (Activation)      (None, 7, 7, 2048)   0           add_16[0][0]                     \n","__________________________________________________________________________________________________\n","avg_pool (AveragePooling2D)     (None, 1, 1, 2048)   0           activation_49[0][0]              \n","__________________________________________________________________________________________________\n","flatten_1 (Flatten)             (None, 2048)         0           avg_pool[0][0]                   \n","__________________________________________________________________________________________________\n","dense_1 (Dense)                 (None, 1024)         2098176     flatten_1[0][0]                  \n","__________________________________________________________________________________________________\n","dense_2 (Dense)                 (None, 7)            7175        dense_1[0][0]                    \n","==================================================================================================\n","Total params: 25,666,503\n","Trainable params: 25,613,383\n","Non-trainable params: 53,120\n","__________________________________________________________________________________________________\n","None\n"],"name":"stdout"}]},{"cell_type":"markdown","
…
